diffusers/experiments/text2video/RectifiedFlow/basics/rectified_flow_2_model.pth (torch, 46814 bytes, 6 tensors)

weight f4 [100, 3]
0	0xc045992d	-3.087474
1	0xbe923b58	-0.285609
2	0x3ff6213b	1.9228891
3	0x3fc483f9	1.5352775
4	0x4043b618	3.0579891
5	0x3fbba3b7	1.4659337
6	0x3f9488fa	1.1604302
7	0x3f371aff	0.7152557
8	0xbfc385b7	-1.5275182
9	0x3f5be6dc	0.8589914
10	0x3fb0ce61	1.3812982
11	0xc0b33c46	-5.6011076
12	0xbf2a57f4	-0.66540456
13	0xbe861106	-0.26184863
14	0x40821367	4.0648685
15	0xbdcd06f4	-0.10011092
16	0x3f24cc83	0.6437456
17	0x4063c0eb	3.5586498
18	0xbf07c96c	-0.5304172
19	0x3f15ab3c	0.5846441
20	0xc06fd2bb	-3.747237
21	0xbfafad28	-1.3724718
22	0x3e8e6eb1	0.27818826
23	0xc071bfca	-3.7773309
24	0xbff9221b	-1.9463533
25	0xc04548ac	-3.0825605
26	0x3fd8d82a	1.6940968
27	0x3df3131d	0.1186888
28	0xbf0fafbe	-0.56127536
29	0xc075e337	-3.841993
30	0x3f15720c	0.58377147
31	0x3f33cc90	0.7023401
32	0xc0ab37f1	-5.350579
33	0xbf9ccb25	-1.2249495
34	0x401b25da	2.4241853
35	0x400e1e73	2.2206085
36	0x3e107268	0.14106143
37	0xbfd0a667	-1.6300782
38	0xc0837228	-4.107685
39	0x3f610dac	0.87911487
40	0xbfeee7aa	-1.8664448
41	0xbfb6be76	-1.4276874
42	0x3db54b2e	0.0885223
43	0x3fa838a7	1.3142289
44	0x3fe9f011	1.8276387
45	0xbfae8cc0	-1.3636703
46	0x3ff1fc9c	1.8905215
47	0xc028dc00	-2.6384277
48	0x40274a3d	2.6139061
49	0xc0975890	-4.729561
50	0xbf9b6664	-1.2140622
51	0x3f1153fd	0.5676878
52	0xbf059b64	-0.5219023
53	0x406176bb	3.5228717
54	0xbfadd099	-1.3579284
55	0xc00d6535	-2.2093022
56	0xbf12ad79	-0.5729595
57	0x3f2d9076	0.67798555
58	0xbf554057	-0.833013
59	0x400e507c	2.2236624
60	0x3f89c4e4	1.0763211
61	0x3fd6d7e0	1.678463
62	0xc070e13a	-3.7637467
63	0x40c13383	6.037538
64	0x3ec535d4	0.3851763
65	0xc092a989	-4.583195
66	0xbf9d40ee	-1.228544
67	0x3f4aaae0	0.79166985
68	0xc04e468b	-3.2230556
69	0x3f3aa715	0.72911197
70	0x3f0d3f8f	0.5517511
71	0xc08179c8	-4.046116
72	0xbef73756	-0.48284405
73	0xbf20f29c	-0.6287019
74	0x3fa045b5	1.2521273
75	0xbf0454d6	-0.5169195
76	0x3eed3348	0.46328187
77	0xc05f0674	-3.4847689
78	0x3ff20c47	1.8909997
79	0xc046ed66	-3.1082397
80	0x4009d63d	2.153701
81	0xbf409236	-0.752231
82	0xbf06289b	-0.5240571
83	0x4096423a	4.6955843
84	0xbf3aca25	-0.729647
85	0x3f8fc966	1.1233337
86	0xbfadd0de	-1.3579366
87	0xbe98c80c	-0.29840124
88	0x3f74c3a9	0.95611054
89	0x40852e68	4.161915
90	0x4102db0a	8.178476
91	0xbcbea614	-0.023272552
92	0x402aa49f	2.6662977
93	0x40389612	2.8841596
94	0x3cad1ed4	0.021132864
95	0xc033a089	-2.8066733
96	0xbf225da0	-0.6342411
97	0xbedc6afb	-0.4305037
98	0xc04f3e16	-3.2381644
99	0xc03732eb	-2.8624828
100	0x3dda20c0	0.10650778
101	0xbf71df28	-0.94481134
102	0xbc94e14b	-0.018173834
103	0x3d181a80	0.037134647
104	0x40390382	2.890839
105	0x3da9dd1d	0.08294127
106	0xbfd5ea8f	-1.6712207
107	0xc07890ee	-3.8838458
108	0x410f3d51	8.95247
109	0xbfb57712	-1.4176962
110	0x3f204277	0.6260142
111	0x3f853f4a	1.0409939
112	0xc0046cb4	-2.0691347
113	0xc0404d34	-3.004712
114	0x412657a2	10.396395
115	0x3bd8b02a	0.0066127973
116	0x3fd8fad0	1.6951542
117	0x40bfe935	5.9972177
118	0xbe139dfd	-0.14415736
119	0x4027027c	2.6095266
120	0x3fe8026d	1.812574
121	0x3a6a27d0	0.0008932324
122	0xc05803c9	-3.375231
123	0xbf4b5c0a	-0.79437315
124	0x3f699929	0.9124933
125	0xc019ea63	-2.4049308
126	0x3da2eaa3	0.0795491
127	0x3f3f6e18	0.74777365
128	0x3fbd7e4a	1.4804165
129	0xc13ed48f	-11.926894
130	0xbe7ed1e9	-0.24884762
131	0x3fd2ac4f	1.6458834
132	0xbda892a4	-0.082310945
133	0xbf125e75	-0.5717538
134	0xc097ac94	-4.7398167
135	0xbef6cb0e	-0.48201793
136	0xbe99ad31	-0.30014947
137	0x409b5515	4.854136
138	0xbde6bbaf	-0.112662666
139	0x3f4cf8d0	0.8006716
140	0x4065c9b1	3.5904353
141	0x3fbdc42d	1.4825493
142	0x4005e242	2.0919347
143	0xc0276d82	-2.6160588
144	0xbdf08800	-0.1174469
145	0x3f1863c4	0.5952723
146	0x4084ab7c	4.145933
147	0x3f48aaa6	0.7838539
148	0x3e959eb9	0.29222658
149	0xc06313b6	-3.548078
150	0x40478edb	3.1180942
151	0x3ec8df4f	0.3923287
152	0xc0696787	-3.6469438
153	0xbf7ce4d9	-0.98786694
154	0x3fb757d9	1.4323684
155	0xbfe6662c	-1.799993
156	0x3e7df1f4	0.24799329
157	0x3e807097	0.250859
158	0x40024011	2.0351603
159	0x3f21c7da	0.63195574
160	0x3f194fb1	0.59887224
161	0xc02865f0	-2.6312218
162	0x40b68a24	5.704363
163	0xbe535fbf	-0.20641993
164	0x4035fa3c	2.843398
165	0x3c72cd1b	0.014819409
166	0x3ec4324f	0.38319632
167	0xbfa1fb63	-1.2654842
168	0xc059eeac	-3.4051924
169	0x3ecaefd5	0.39636102
170	0xc025c5fe	-2.5902095
171	0xc09ae3f4	-4.8403263
172	0xbed68124	-0.418954
173	0x4075e062	3.8418202
174	0xbf4f3dec	-0.8095386
175	0x3ead3118	0.33826518
176	0xc090f88c	-4.53034
177	0xbfac411e	-1.3457372
178	0xbf355669	-0.70834976
179	0x404ebf56	3.2304282
180	0x3f54b002	0.83081067
181	0xbfef35e3	-1.868832
182	0xbfe03e88	-1.7519083
183	0xbf48843e	-0.78326786
184	0x3f92a9d0	1.1458073
185	0xc060239a	-3.502173
186	0xbfba1ff7	-1.4541005
187	0xbf5ea136	-0.8696474
188	0x40839725	4.1122003
189	0x3ee197ea	0.44061214
190	0x3faf5ec9	1.3700801
191	0x40856efe	4.169799
192	0x3ec66780	0.3875084
193	0x3f94a2c1	1.1612169
194	0x405b5463	3.4270256
195	0x40bd203c	5.910185
196	0x3ecb13a7	0.3966343
197	0xc0238f0d	-2.5556061
198	0xbfab52ce	-1.3384645
199	0x4012b6e6	2.2924132
200	0x3f23b720	0.639513
201	0x413750e0	11.457245
202	0x3e671126	0.22565135
203	0xbf7384d2	-0.9512454
204	0xbf8e1c1a	-1.1102326
205	0x3f4b86e7	0.7950272
206	0xc03febec	-2.9987745
207	0xbc842886	-0.016132604
208	0x3e1e4db1	0.15459324
209	0xc01429ef	-2.3150594
210	0xbe3a2b09	-0.18180479
211	0xbf48e3cd	-0.78472596
212	0xc01d40af	-2.457073
213	0x40c3f7ce	6.1239996
214	0xbc63ef5a	-0.013912046
215	0xbf8ea8f4	-1.114531
216	0x4117193a	9.443659
217	0xbd2db382	-0.04240752
218	0x4035827e	2.8360896
219	0xc0568e32	-3.352429
220	0xbe8bf4f8	-0.27335334
221	0x3ff5622b	1.9170583
222	0x3f7af175	0.98024684
223	0xbfe08640	-1.754097
224	0x4024820b	2.5704372
225	0x3f349990	0.7054682
226	0xbe96c384	-0.29446042
227	0x406f6ef6	3.7411475
228	0x3f25b2ba	0.6472584
229	0x3d2d94ba	0.042378165
230	0xc0647aa8	-3.5699863
231	0xbf920e21	-1.1410562
232	0xbfb6bdca	-1.4276669
233	0x4064e05f	3.5761945
234	0xbd7fe829	-0.062477265
235	0xbd65c736	-0.056098185
236	0xc00d039a	-2.2033448
237	0xbfa5ae54	-1.2943826
238	0xc02a74f4	-2.6633883
239	0xc0407bb9	-3.0075514
240	0xbdc767b3	-0.09736576
241	0x3f2035ac	0.62581897
242	0x407be89e	3.9360728
243	0x3ff8f70e	1.9450395
244	0x407582dc	3.836112
245	0xbeba6c4f	-0.36410758
246	0x400c69da	2.1939607
247	0xc0650b09	-3.5787985
248	0x3e63c34c	0.22242469
249	0x3f5bdebb	0.85886735
250	0xbf267f05	-0.65037566
251	0x401a9800	2.4155273
252	0xbfd28e68	-1.6449709
253	0xc02ea63f	-2.7288969
254	0x3f5eb9c7	0.87002224
255	0x3c9efd39	0.019407855

bias f4 [100]
0	0xbeade45a	-0.3396328
1	0x3edddb95	0.4333159
2	0x40b5da55	5.682902
3	0x3f4f4344	0.80962014
4	0xc020375f	-2.5033796
5	0xc0175f25	-2.3651822
6	0x3fffe7b6	1.9992588
7	0x401c0fac	2.4384565
8	0xbe7771c7	-0.24164496
9	0x3ff20395	1.8907343
10	0x3fa9f4af	1.3277797
11	0xbf14afa9	-0.58080536
12	0xbffcab24	-1.9739728
13	0xbead0cfd	-0.33798972
14	0x408798d7	4.237407
15	0x3de50adf	0.11183714
16	0x3f1e6450	0.61871815
17	0xbfda82b4	-1.7071137
18	0xbf26f362	-0.6521512
19	0x3e05a57a	0.13051406
20	0x3f6a8f4f	0.9162492
21	0x40004a9b	2.0045536
22	0xc0713987	-3.7691362
23	0x405e28bb	3.471236
24	0xbf9ad164	-1.2095151
25	0x4025811e	2.5860057
26	0xbf82c04e	-1.0214937
27	0xbf9d6822	-1.2297404
28	0x3f88354c	1.0641265
29	0xbf2761a1	-0.65383345
30	0xbf7d87a4	-0.99035096
31	0x3f48047c	0.7813184
32	0xc0843fca	-4.1327868
33	0x3fc4eaae	1.5384119
34	0xbf00d5ca	-0.50326216
35	0xc0503a16	-3.2535453
36	0xbf88f840	-1.070076
37	0x3f9cf644	1.2262654
38	0xbeb9ed42	-0.36313826
39	0xbeafe6b6	-0.34355706
40	0x3dafe400	0.085884094
41	0x3f65ff73	0.8984291
42	0xc01a8c9c	-2.414832
43	0xbf8d68d0	-1.1047611
44	0x40095baa	2.1462197
45	0xc0073380	-2.1125183
46	0xbd389dc1	-0.04507232
47	0xbd4d88f6	-0.050179444
48	0xbff1ae9f	-1.8881415
49	0x3f1eadae	0.61983764
50	0x3f2d7b6a	0.6776644
51	0x3fa99820	1.324955
52	0x3eaf9c8b	0.3429912
53	0x40244d46	2.5672164
54	0x3eea7d80	0.45798874
55	0x404e47fc	3.2231436
56	0x3f200709	0.62510735
57	0xbff64aaa	-1.9241536
58	0x3f0180fc	0.5058744
59	0x403f65e2	2.9905934
60	0x3fbb29cd	1.4622132
61	0x3f9a8569	1.2071964
62	0x4042ce77	3.0438516
63	0xc0262a81	-2.5963442
64	0xbf2015d9	-0.62533337
65	0x3ec86a1f	0.39143464
66	0xbf8643ef	-1.0489482
67	0x3efc5904	0.49286664
68	0xc029ee42	-2.655167
69	0x4015b41b	2.3391178
70	0x3fedbc7c	1.8573146
71	0xbf846b58	-1.0345259
72	0xbf5cc190	-0.8623285
73	0xc02ccb12	-2.6998944
74	0x3e1b8a49	0.1518947
75	0xc00798cd	-2.1187012
76	0x3d8d6826	0.0690463
77	0xc00ca2e6	-2.1974425
78	0x3fce7d73	1.6132034
79	0x3f56cbf5	0.83904964
80	0xbfbb2389	-1.462022
81	0xbe0af99c	-0.13571781
82	0x3f5f7372	0.8728553
83	0x3f3523d2	0.7075778
84	0xbef082c1	-0.46974757
85	0x40944483	4.6333632
86	0xc0088625	-2.1331875
87	0x3f9359d4	1.1511788
88	0xc09bc37b	-4.8676124
89	0xbf56b563	-0.83870524
90	0x3fc3b4a8	1.5289507
91	0x3e353e45	0.17699535
92	0x40067a05	2.1011975
93	0x4097574c	4.7294064
94	0xbfb3ff52	-1.4062293
95	0x3fe8e8a2	1.8195994
96	0x40277b05	2.6168835
97	0x3ff0c872	1.8811171
98	0xc0295bf1	-2.6462367
99	0xbfacc74b	-1.3498319

weight f4 [100, 100]
0	0x3f40f377	0.753715
1	0x3f000737	0.5001101
2	0xbf8f9e18	-1.1220121
3	0x3deeb4e2	0.116555944
4	0x40375dee	2.865108
5	0x3fce7f4b	1.6132597
6	0xbf8b3a23	-1.0877117
7	0xbff2c419	-1.8966094
8	0xbea078c6	-0.31342143
9	0xbfde73bd	-1.737907
10	0xbfacc4e0	-1.3497581
11	0x3f97e0e0	1.1865501
12	0xc00b9426	-2.1809173
13	0x3eab7886	0.3349039
14	0x40328fbf	2.7900236
15	0x3f7a42ad	0.9775799
16	0x3f168637	0.58798546
17	0x40047b71	2.0700343
18	0xbed39f32	-0.41332394
19	0xbfaf1732	-1.3678954
20	0xbf4aaffd	-0.79174787
21	0x3d872e32	0.06600608
22	0x3e6f3924	0.23361641
23	0xbfcc58a8	-1.5964556
24	0xbdf13bce	-0.11778985
25	0xc012be1a	-2.2928529
26	0x3fc9bb95	1.576037
27	0x3fca3c2d	1.5799614
28	0xbdcf1e1a	-0.10113163
29	0xbf1265bc	-0.57186484
30	0x3f8bb3e4	1.0914273
31	0x3f916b19	1.1360809
32	0x3f2bbf98	0.67089224
33	0xbed9f6d4	-0.42571127
34	0x3f91d4e3	1.1393093
35	0xc023e070	-2.5605736
36	0x3ecd5832	0.4010635
37	0x3f40fe80	0.75388336
38	0x3f92f3b7	1.1480626
39	0x3f00379d	0.5008486
40	0xbd8b18ac	-0.06791815
41	0xbf9198e6	-1.1374786
42	0x3fa54463	1.2911495
43	0xbeafadf7	-0.34312412
44	0xbf9345ca	-1.1505673
45	0x40138f1d	2.30561
46	0x3f75ef22	0.9606801
47	0xbf71395d	-0.94228154
48	0x3fdea95f	1.7395438
49	0xbf5369b9	-0.82583195
50	0xbee8c281	-0.45460895
51	0xbf7997c5	-0.97497207
52	0x3fa4cd43	1.2875141
53	0xbfb571f7	-1.4175404
54	0xbf74dc86	-0.9564899
55	0x4010f5ea	2.2650094
56	0x3f81e9b5	1.0149447
57	0xbd50a691	-0.0509401
58	0x3e3134bc	0.17305273
59	0x3f667677	0.90024513
60	0x3f054a9b	0.52066964
61	0xbf9c3bf4	-1.2205796
62	0x3f3078b7	0.68934196
63	0x3eb42ad9	0.3518894
64	0x3f9b497e	1.2131803
65	0xbf5a5f0a	-0.8530127
66	0x3c855e5f	0.016280351
67	0xc00a12bb	-2.1573932
68	0x3f991be3	1.1961635
69	0x3fc1bf60	1.5136528
70	0xbfd3c3e1	-1.6544152
71	0x3d2e5058	0.04255709
72	0xbe8596a4	-0.26091492
73	0x3c8def77	0.0173261
74	0x3f2f9167	0.6858124
75	0x3fedae81	1.8568879
76	0x3ce4abd8	0.027913973
77	0x3f12512a	0.57155097
78	0xc02996fb	-2.64984
79	0xbee6097e	-0.44929117
80	0x3eca845f	0.39554116
81	0x3e4e7831	0.20163037
82	0x3ea829d1	0.32844403
83	0xbf445d4d	-0.76704866
84	0x3f32a873	0.69788283
85	0xc0570c18	-3.3601131
86	0xbe4136aa	-0.18868509
87	0xbee44994	-0.44587386
88	0x3f97a646	1.1847618
89	0xbeacaa6d	-0.33723775
90	0x3fb34f45	1.4008566
91	0x3f8e92e7	1.1138581
92	0xbfb5f0d7	-1.4214123
93	0x3e270af3	0.1631277
94	0xbe6c71ac	-0.23090237
95	0x3e69a1fe	0.22815701
96	0x3f8db9c7	1.107232
97	0xbff3787c	-1.9021144
98	0x40100eac	2.2508955
99	0x3e013432	0.12617567
100	0xbe959b46	-0.29220027
101	0x3dd00a3d	0.10158203
102	0x3f1576cd	0.583844
103	0x3ee119ab	0.43964896
104	0xbf128e33	-0.5724823
105	0xbd05071c	-0.032477483
106	0x3d07a8f8	0.033120126
107	0x4011963f	2.2747953
108	0x3f05bc35	0.52240306
109	0x3f86880a	1.0510266
110	0x3ead88f5	0.33893552
111	0xbfbc5cc5	-1.4715811
112	0x3e1dff86	0.15429506
113	0x3fc6de07	1.5536507
114	0xc0483c5c	-3.128684
115	0xbff57d65	-1.9178892
116	0x3e76562f	0.24056314
117	0xc03ebf2d	-2.9804184
118	0x3f5bb214	0.858186
119	0x3ed31b59	0.41231802
120	0x3eadfa79	0.33980158
121	0xbf21f361	-0.6326199
122	0xbffd8644	-1.98066
123	0x3f20bb91	0.62786204
124	0x3d0de2a9	0.034639988
125	0x3fd2dd05	1.64737
126	0xbfa738ab	-1.3064169
127	0xbf909f13	-1.1298546
128	0xbee717b6	-0.45135278
129	0xbf8e0c7a	-1.1097558
130	0xc00b010e	-2.1719394
131	0xbec96f87	-0.393429
132	0xbf8e52ef	-1.1119059
133	0x3f8503df	1.0391806
134	0xc005d663	-2.0912101
135	0x4019ef0b	2.405215
136	0xbf3d1f0c	-0.738755
137	0xbe960f8e	-0.29308742
138	0xbe936c3a	-0.28793508
139	0xbed58e64	-0.41710198
140	0xbe2a01c3	-0.16602235
141	0x3f8b918c	1.0903792
142	0xbf26fb5b	-0.6522729
143	0x3bd8a2b2	0.0066111917
144	0x3fb381e6	1.4024017
145	0xbe89b165	-0.26893154
146	0xbf58b472	-0.8465034
147	0x3debcf49	0.11514146
148	0xbf9cea86	-1.2259071
149	0x3f564631	0.83700854
150	0x3ef0cf92	0.47033364
151	0x3ebbea6f	0.36702296
152	0xbec3f3e5	-0.38272014
153	0x3f25ff99	0.64843136
154	0x3f33d6a5	0.70249397
155	0xbffcdf22	-1.9755595
156	0xbf36cf2c	-0.7140987
157	0x3f2882d5	0.65824634
158	0xbfcca002	-1.598633
159	0xc0189974	-2.384366
160	0xbf001295	-0.50028354
161	0x3f3c9653	0.73666877
162	0xbff715f8	-1.9303579
163	0xbdc5ea05	-0.09663776
164	0xbe298cd1	-0.16557623
165	0x3f86a85b	1.0520128
166	0x3e67662b	0.22597568
167	0x40262b6c	2.5964003
168	0xbfef7782	-1.8708346
169	0x3ec9f388	0.39443612
170	0x3f39ef99	0.7263122
171	0xbe1daa02	-0.15396884
172	0x3ed77d3b	0.4208773
173	0x3f6e042a	0.92975104
174	0xbf23502b	-0.637942
175	0xc048de9f	-3.1385877
176	0x3e4c1c08	0.19932568
177	0x3cdc52c0	0.026894927
178	0x40658111	3.5860026
179	0x3eb9819a	0.3623169
180	0xbf7ff836	-0.99988115
181	0xbd0c1176	-0.03419634
182	0x3ee6b7b8	0.4506204
183	0x3ef3f5d8	0.476485
184	0x3dec6af9	0.11543841
185	0x40887153	4.2638335
186	0x3efb8c52	0.49130493
187	0xbf0ebdc1	-0.5575829
188	0xc0c97fb3	-6.2968383
189	0x3ed9c78f	0.42535064
190	0xbeed356e	-0.46329826
191	0xbe94b2d3	-0.29042682
192	0xbd41e271	-0.047335092
193	0x3ff3a72f	1.9035395
194	0x3e71d553	0.23616533
195	0x3dda6cf5	0.10665313
196	0xbfb6351e	-1.423496
197	0x400a0fa7	2.1572053
198	0x3e6f0851	0.23343016
199	0xbe89a668	-0.2688477
200	0xbc91ea47	-0.017811907
201	0x3f0797a0	0.52965736
202	0xc0035630	-2.0521355
203	0x3f1c7f02	0.611313
204	0x3fd09052	1.6294043
205	0x3fcef06d	1.6167122
206	0xbff9a8c4	-1.9504628
207	0xbf6ae04b	-0.91748494
208	0x3f2846ae	0.6573285
209	0xbf7ab081	-0.97925574
210	0xbf7c6771	-0.9859534
211	0x3c6d0de9	0.0144686485
212	0xbee0ae2c	-0.43882883
213	0x3d67f102	0.056626327
214	0xbf968fee	-1.1762674
215	0xbea38a30	-0.31941366
216	0xbf93e284	-1.1553502
217	0x3fbc74fe	1.4723203
218	0xbe109e39	-0.14122857
219	0xbd30f07d	-0.043198097
220	0x3c7eb7c1	0.01554674
221	0xbebf6bab	-0.37386832
222	0xbeeb475e	-0.45952886
223	0xc00f5c46	-2.240007
224	0x3f6de358	0.92925024
225	0xbf764337	-0.9619631
226	0xbf77e7b0	-0.968379
227	0xbc8151fc	-0.015786164
228	0x3f2d717b	0.6775128
229	0xbf1a4925	-0.6026786
230	0xbdc8c965	-0.09804038
231	0xbf002ea9	-0.500712
232	0xc03ee14c	-2.982501
233	0x3f65c0a7	0.8974709
234	0x3fc8d08d	1.5688645
235	0x3fc696f6	1.551482
236	0x3f760421	0.9610005
237	0xbe838e23	-0.2569438
238	0xbd821adb	-0.063527785
239	0x3f91243d	1.1339184
240	0xbfdbf6c6	-1.7184684
241	0xbf4ecc29	-0.80780274
242	0x3f2bf000	0.67163086
243	0x3fb03815	1.3767115
244	0xbf86de03	-1.0536503
245	0xbdd777c5	-0.10520891
246	0xbfb96f88	-1.4487162
247	0x3d95edd3	0.07320752
248	0x3f99c702	1.2013857
249	0x3d622a26	0.055215977
250	0xbf535a84	-0.8255999
251	0x3f0770b7	0.52906364
252	0xbf205ca1	-0.6264134
253	0xc0024073	-2.0351837
254	0x3f80eecb	1.0072874
255	0xbf92f122	-1.1479838

bias f4 [100]
0	0xbe7fa918	-0.24966848
1	0xc00e42d4	-2.2228289
2	0xc01e6a39	-2.4752333
3	0xbf6b974c	-0.92027736
4	0x3e5a2a8b	0.21305291
5	0xbf87381f	-1.0564002
6	0xbfb91e3a	-1.446235
7	0xbddaf681	-0.10691548
8	0xbf98d292	-1.1939261
9	0xbdea731c	-0.114477366
10	0xc042209d	-3.0332406
11	0xbf88d5f1	-1.069029
12	0x3f9ad892	1.2097342
13	0x3fe1431a	1.7598603
14	0x3f5a2a20	0.8522053
15	0xbfa7a61a	-1.3097565
16	0xbfd28cf4	-1.6449265
17	0x3f1956cc	0.59898067
18	0xc04c442b	-3.1916606
19	0x3eaa0c98	0.33212733
20	0xc01ca29e	-2.4474254
21	0x3f3df4d3	0.742017
22	0xbf2074a0	-0.62677956
23	0xbff0b04d	-1.8803803
24	0xbe14be59	-0.14525737
25	0xc04cbace	-3.1989017
26	0xbf531e29	-0.82467896
27	0xbf87195c	-1.0554614
28	0xbeace026	-0.33764762
29	0xbe24ab97	-0.16081081
30	0xbf81791b	-1.0115083
31	0x3e566d1e	0.20940062
32	0x3ee8122f	0.45326373
33	0x4046dabd	3.1071007
34	0xbee1fb5c	-0.44137084
35	0x3df33050	0.11874449
36	0x3f8b5739	1.0885993
37	0xbfeae69a	-1.8351624
38	0xc00a7efb	-2.1640003
39	0x3ead91f3	0.33900413
40	0x3fadd47a	1.3580468
41	0xbf490540	-0.78523636
42	0x3f76d6a8	0.9642129
43	0xbf1dfa35	-0.6170991
44	0x3fe5499c	1.7913089
45	0xbf64d6ce	-0.89390266
46	0x3f87f015	1.0620142
47	0x4087e40b	4.2465873
48	0x400bae83	2.1825264
49	0x400043b0	2.0041313
50	0xbefb7c9d	-0.4911851
51	0x3ff38fc9	1.9028255
52	0x3d321d93	0.043485235
53	0x3f8892ca	1.0669796
54	0xbf944415	-1.1583277
55	0xc03e6764	-2.9750605
56	0xbf26d796	-0.6517271
57	0xbf874b70	-1.0569897
58	0x3f5cbca8	0.86225367
59	0xbd47ff46	-0.048827432
60	0xbfd7e096	-1.6865413
61	0x3f15b5e1	0.5848065
62	0x3edc6ca4	0.43051636
63	0x3ee31b0b	0.4435657
64	0x3eecff73	0.46288642
65	0xbf825b3d	-1.0184094
66	0x3e51c05b	0.20483534
67	0x40591851	3.3921092
68	0xc00a95aa	-2.1653848
69	0xbf064da5	-0.52462226
70	0xbfeec148	-1.8652735
71	0x3fdc3c74	1.7205949
72	0x3f3cfa42	0.73819363
73	0xbef6b792	-0.48186928
74	0x3f910c4e	1.133188
75	0xbf33a473	-0.70172805
76	0xc00785a2	-2.1175313
77	0xbfebfa08	-1.8435678
78	0xbe2af289	-0.16694082
79	0xbe233f45	-0.15942104
80	0x3fa68d4a	1.3011868
81	0xbfef77f8	-1.8708487
82	0x3f7bbec0	0.98337936
83	0x3fdb0273	1.7110122
84	0xbe3be52a	-0.18349138
85	0xbfeadfcc	-1.8349547
86	0xc021a5d0	-2.5257454
87	0x3f779c99	0.96723324
88	0xbfb06ea8	-1.378377
89	0xbf8f444a	-1.1192715
90	0x3f3e87f7	0.74426216
91	0xbdfea342	-0.12433483
92	0x3ee49e79	0.44652155
93	0x3ea8f76c	0.33001268
94	0x400123dc	2.0178137
95	0x3e7b81af	0.24561189
96	0x3e66358e	0.22481367
97	0xc03c35b4	-2.9407778
98	0xbfc66803	-1.5500492
99	0xbe426ae4	-0.18986088

weight f4 [2, 100]
0	0x3e874493	0.26419505
1	0x3d6a2beb	0.05717079
2	0x3e1d54d8	0.15364397
3	0xbd17d2f4	-0.037066415
4	0x3e4f3dff	0.20238493
5	0xbee8128f	-0.4532666
6	0xbfd86fae	-1.6909082
7	0x3e284b22	0.16434911
8	0x3ef1faca	0.4726165
9	0xbed02491	-0.40652898
10	0xbf293054	-0.6608937
11	0x3e1d02fd	0.15333171
12	0x3e9fbc71	0.31198457
13	0xbed027d9	-0.406554
14	0x3e1149e8	0.14188349
15	0xbd4b064f	-0.049566563
16	0xbd1c382f	-0.03813952
17	0xbe79e6ca	-0.24404445
18	0xbf228b20	-0.6349354
19	0x3e120dd1	0.14263083
20	0x3fae129c	1.3599429
21	0xbcf4061b	-0.029788068
22	0x3c9c7ea0	0.019103348
23	0xbea8e560	-0.329875
24	0xbde46bb8	-0.11153358
25	0x400abb61	2.1676867
26	0x3f8dcf3b	1.1078867
27	0xbe10e1db	-0.14148657
28	0x3cf1c7d2	0.029514227
29	0x3ea51d03	0.32248697
30	0x3eccfef5	0.40038267
31	0xbdbd565f	-0.092449896
32	0xbeb0db84	-0.34542477
33	0xbe1eb3b6	-0.15498242
34	0xbe142ed0	-0.14470983
35	0x3e470e71	0.19439103
36	0x3e7f5de5	0.24938162
37	0x3e46de6f	0.19420789
38	0xbea870a4	-0.32898438
39	0x3e4fda60	0.20298147
40	0xbf23fc65	-0.64057
41	0xbf6df347	-0.92949337
42	0x3e0be00f	0.1365969
43	0xbd85620b	-0.06512841
44	0x3f05af2e	0.5222043
45	0x3ec95a0a	0.39326507
46	0x3ebf8fd1	0.3741441
47	0xbe4ae293	-0.19812994
48	0x3e8e99e8	0.27851796
49	0xbe2d8874	-0.16946584
50	0xba705076	-0.0009167263
51	0x3e848175	0.25880018
52	0xbc25dc0d	-0.010123265
53	0xbe389507	-0.180256
54	0x3f8593fa	1.0435784
55	0x3f554107	0.8330235
56	0xbd78a7d8	-0.060706943
57	0x3e5f832b	0.2182738
58	0xbe55e239	-0.20887078
59	0x3ef8a63e	0.48564333
60	0xbe193c9f	-0.14964531
61	0x3f023be8	0.5087266
62	0x3de2b70e	0.11070071
63	0xbc9f7916	-0.019466918
64	0x3c66c7bf	0.014085709
65	0x3d69c2fc	0.057070717
66	0x3d3ba3f4	0.045810655
67	0xbf70bdc5	-0.94039565
68	0x3dd87b8c	0.1057044
69	0x3fbe659f	1.4874762
70	0x3f7888ee	0.9708394
71	0xbe2d0a7f	-0.16898535
72	0xbf1de3f0	-0.6167593
73	0x3ede16e3	0.43376836
74	0x3ed70cc2	0.4200192
75	0xbd86622b	-0.06561693
76	0xbe93f458	-0.28897357
77	0x3daa8ce5	0.08327655
78	0x3e07b3af	0.13252138
79	0x3efd88d2	0.49518448
80	0xbe86ac1c	-0.26303184
81	0x3d9be9f9	0.07612986
82	0xbebc7372	-0.36806828
83	0x3e039091	0.12848116
84	0x3f869a28	1.0515795
85	0xbe054df9	-0.13018025
86	0x3e49cd9c	0.1970734
87	0x3d1f5dbc	0.03890775
88	0x3f4937ff	0.7860107
89	0x3ec1a25b	0.3781918
90	0x3e15d780	0.14632988
91	0xbbd273af	-0.006422482
92	0x3e41710f	0.18890785
93	0x3f72f325	0.9490226
94	0x3cb75454	0.022379078
95	0x3e6fc1cf	0.23413776
96	0xb9cf7bca	-0.00039574347
97	0xbdff126f	-0.12454688
98	0x3e3630d8	0.1779207
99	0xbe1473ab	-0.14497249
100	0xbe87431e	-0.26418394
101	0x3de6b645	0.11265234
102	0x3cd46fac	0.025932156
103	0x3f26d756	0.65172327
104	0xbcdef697	-0.027217193
105	0xbeb67b5a	-0.35640985
106	0x3f8d4ec9	1.1039668
107	0xbe82a9f7	-0.25520298
108	0xbcfb986c	-0.030712329
109	0x3d23ab94	0.03995855
110	0x3ea976b1	0.33098367
111	0x3dfe5268	0.124180615
112	0xbe2a7a16	-0.16648135
113	0x3f05ae90	0.52219486
114	0x3dd39f85	0.1033316
115	0xbe732dd8	-0.23747957
116	0xbe46fe6e	-0.19432995
117	0x3e441844	0.19149882
118	0xbdcb59d2	-0.09929241
119	0x3d6ee679	0.058325265
120	0x3f458edc	0.7717111
121	0xbf5d7b25	-0.8651603
122	0x3dce99e5	0.10087947
123	0xbdd4a0f5	-0.103822626
124	0x3cc6bb79	0.024259316
125	0xbfa37e6a	-1.2772954
126	0x3f29923c	0.6623876
127	0x3f1e8692	0.6192409
128	0xbecac224	-0.39601243
129	0x3e5f6372	0.21815279
130	0xbea16714	-0.31523955
131	0x3ecc56b7	0.39909908
132	0xbd66212c	-0.05618398
133	0xbe7448a8	-0.23855841
134	0x3c78ad6d	0.015178067
135	0xbe07df4f	-0.13268779
136	0xbe2f41c7	-0.17114936
137	0x3e7978a4	0.24362427
138	0xbf07cd4e	-0.53047645
139	0xbddc5f34	-0.10760346
140	0xbeddc077	-0.43310902
141	0xbe9cc6c5	-0.306204
142	0x3ecb6233	0.39723358
143	0x3eb2c626	0.349168
144	0xbf8c24df	-1.0948752
145	0x3e47d11e	0.19513366
146	0x3e569fbe	0.20959374
147	0xbe8efa67	-0.27925417
148	0xbfe69913	-1.8015465
149	0xbe01fb58	-0.12693536
150	0xbf48b4eb	-0.7840106
151	0x3c38fbe5	0.011290525
152	0x3e8d8672	0.27641636
153	0xbdd72217	-0.10504549
154	0xbf2d71e6	-0.6775192
155	0xbf3bef61	-0.7341214
156	0x3f001800	0.5003662
157	0xbf191fe3	-0.5981428
158	0xbd0ebe00	-0.034849167
159	0x3dbfbe50	0.09362471
160	0x3e65339c	0.22382969
161	0x3ee8864e	0.45414966
162	0xbe19aa4d	-0.15006371
163	0x3c122176	0.0089191105
164	0x3f7269af	0.9469251
165	0x3e95d9b8	0.2926767
166	0xbd9b261b	-0.075756274
167	0x3f008d96	0.50216043
168	0x3d875ab5	0.06609098
169	0x3ee739df	0.4516134
170	0xbf6614b1	-0.8987532
171	0x3ed4a41c	0.41531456
172	0xbee8ac27	-0.45443842
173	0x3f006fa7	0.5017037
174	0xbe124261	-0.14283134
175	0xbec506b2	-0.3848167
176	0xbf10f24c	-0.56619716
177	0xbe99e489	-0.3005717
178	0xbe0d5726	-0.13802776
179	0xbd7b62c2	-0.06137348
180	0x38d40b6d	0.00010111076
181	0x3e48a06a	0.19592443
182	0xbdc501da	-0.09619494
183	0x3e1f44a2	0.15553525
184	0xbf6e43e3	-0.93072337
185	0xbe23be80	-0.15990639
186	0xbec60ad9	-0.3868015
187	0xbde01e6e	-0.10943304
188	0xbe240a9e	-0.16019675
189	0xbeb9ec77	-0.3631322
190	0xbe398efb	-0.18120949
191	0x3e3ff4af	0.18745683
192	0x3e06462b	0.13112704
193	0xbf2d55ce	-0.6770905
194	0xbec053dc	-0.3756398
195	0x3f12bf10	0.5732279
196	0x3e28059e	0.16408393
197	0x3eb8e9b6	0.36115807
198	0x40028e80	2.0399475
199	0xbde76993	-0.112994336

bias f4 [2]
0	0x3f3a1ac7	0.7269711
1	0xbf30ce43	-0.6906473
