diffusers/experiments/text2video/RectifiedFlow/basics/rectified_flow_1_model.pth (torch, 46750 bytes, 6 tensors)

weight f4 [100, 3]
00000000: 6688 05c0 36d5 48bf 2eee d0be ccf1 243f
00000010: 8399 f23f c247 2040 9255 493f 285d f93e
00000020: 85c4 05bf 3f29 243f bf8d ab3f ff1d efbf
00000030: b3a2 babe 5818 57be 9118 2c40 e70a 1ebc
00000040: 9ee2 d73e a0fa 2a40 785d a5be 5066 7c3e
00000050: 1882 45c0 fbea ccbe 0eaf 3e3e 0284 3fc0
00000060: 521c debf ece8 24c0 1e42 1740 bcf9 173c
00000070: 8367 dabe e214 21c0 9d1c a53e eda0 733e
00000080: ce53 ffbf a5d5 56bf 4000 f83f 1b32 4e40
00000090: 32c7 6cbc b7f6 43bf e11c 2cc0 a040 fb3e
000000a0: 0133 a2bf 2f43 f8bf 9877 803c ae64 903f
000000b0: 3ea5 d73f 7451 68bf c08e 903f ff9e 53c0
000000c0: 4b59 fa3f 52ee 9bc0 f0e9 1cbf 59de d03e
000000d0: d5b8 9bbe b015 2040 514e b3bf c5e5 f2bf
000000e0: 085d 5fbf 3820 013f a373 ffbe 6fd6 4740
000000f0: f0db 773f 50a7 963f 1815 3cc0 e7cc aa3f
00000100: cf54 9f3d 848f c6bf 5981 81bf 6552 243f
00000110: 22cb 32c0 53d3 cd3e 4227 943e b8ce 10c0
00000120: 0ad3 cdbe 0428 8ebe b638 883f af36 e5be
00000130: 0b44 a93e 8647 0cc0 4278 c03f 80a9 24c0
00000140: a961 f53f 0c82 1bbf 2ca0 cabe d1e5 5240
00000150: e94e 31be 644f 743f b9c9 e9bf 43b5 cdbe
00000160: e190 843f 0175 5240 a7c8 a63f 35c4 babd
00000170: dbac 0a40 1b52 7340 2dc9 1bbf c9cc c3bf
00000180: 2cb6 57bf 0c4d 0ebf 2c16 08c0 6786 94bf
00000190: 4169 473e de03 7ebf fb34 3fbe 1000 07bd
000001a0: 7e84 c63f ba08 96bd fd17 8cbf 792c 49c0
000001b0: 3953 5840 79b6 02c0 5021 a13f 743e 093f
000001c0: b6ca 8cbf 5dd3 12c0 5b57 2940 d85d ac3d
000001d0: a0c7 c73f cf2a 1540 f9e7 6d3e c2e4 0240
000001e0: 5d57 933f c622 7dbd 5424 ffbf 9009 b7be
000001f0: a236 683e c957 d3bf bbbf 5c3b e05e d73e
00000200: de7a 0040 f62a 44c0 68bb 163e 9786 b33f
00000210: 2c6b cbbc 8bf6 c0be 9dbe 53c0 a4b1 ccbe
00000220: 9b18 32be 1d12 4340 4fad 10be 6169 153f
00000230: 711e 3840 c94e 763f a0d1 a23f fc32 50c0
00000240: add8 47bc 05c7 d33e 8d36 2c40 2141 e33e
00000250: d958 323e 7ffb 21c0 66df bb3f 435f 503e
00000260: c8e3 5ec0 d2e5 0dbf 77ab 643f fa6b 09c0
00000270: 59fa 1e3e 19ed 043f da91 5040 7b29 ce3e
00000280: e441 8f3e 80a2 0dc0 1922 d23f 65d5 9bbe
00000290: fa4a 2640 fcb9 633b c3c1 7d3e e081 f5bf
000002a0: ff6a 9dbf 52ad 023f 07f3 3dc0 3040 88bf
000002b0: 2d22 8dbd b2b4 0240 798b 2fbf 1bf8 af3e
000002c0: 9e5d 49c0 1da5 6cbf 934b 13bf ea7c 3440
000002d0: c2eb d03e bafa 39bf f7eb 03c0 9e8b ccbe
000002e0: 659a 0b3f 8e77 2ac0 a542 59bf a9d3 06bf
000002f0: 63bb 4d40 056a b63e 29d0 493f 94bb 3840
00000300: bb4b d03e d88f 863f 36b4 6140 85c7 2440
00000310: 486a 1a3f 1a55 0cc0 1ab4 84bf 4c5b bf3f
00000320: 65d7 fc3f fa69 8040 cb3f d63f 9f6b 29bf
00000330: 8a18 70bf 1a11 133f 8f43 35c0 dca2 903c
00000340: 8957 9e3e 2927 35c0 396e 8b3b 88b2 dcbe
00000350: d6f8 03c0 3d01 0c40 0516 17bf 43a7 87be
00000360: e8b0 b63f 4d61 1bbe 4ee2 4340 7c74 c8bf
00000370: 1412 4abe 06e1 dc3f e056 f13e 88f4 3ebf
00000380: c4f1 cc3f 536b c73e 5b1c 81be f6c3 2440
00000390: 5b84 ca3e ab23 9c3d 039e 13c0 a636 1fbf
000003a0: d3ce 67bf 9b21 2840 065f 87be 702e 2c3d
000003b0: 4ffa f7bf bd6a 5bbf 6f2d f3bf 864c 60c0
000003c0: 8b7e 8dbe 030e 6d3f cddf 4e40 5488 993f
000003d0: c50c 8040 ee00 65bf bf30 f33f db39 34c0
000003e0: f62b 6e3f 7482 7c3f d518 57bf 1a6b b53f
000003f0: f74e 94bf e8d5 fabf 4e25 bd3f b5a7 93bb
-2.08645 -0.78450334 -0.40806717 0.6443145 1.8953098 2.5043797 0.78646195 0.48703885
-0.5225299 0.64125437 1.3402632 -1.8681029 -0.36452255 -0.2100538 2.6889994 -0.009646154
0.42165083 2.671547 -0.32297873 0.24648404 -3.0860653 -0.40023026 0.18621466 -2.992432
-1.7352393 -2.5767164 2.3634105 0.00927585 -0.42657098 -2.5168996 0.32248393 0.23791857
-1.994745 -0.83919746 1.9375076 3.2218082 -0.014451789 -0.7654833 -2.6892626 0.49072742
-1.2671815 -1.9395503 0.015682027 1.1280725 1.6847303 -0.9074929 1.1293564 -3.3065794
1.95585 -4.872842 -0.6129446 0.40794638 -0.30414453 2.5013237 -1.4008275 -1.897637
-0.8725133 0.50439787 -0.4989291 3.122463 0.96819973 1.176981 -2.9387875 1.3343781
0.07779848 -1.5512547 -1.0117599 0.64188224 -2.7936482 0.4020029 0.289362 -2.262617
-0.40200073 -0.27764904 1.0642307 -0.44768283 0.33059725 -2.1918654 1.50367 -2.5728455
1.9170429 -0.6074531 -0.39575326 3.2952769 -0.17315258 0.9543364 -1.8264686 -0.40177354
1.0356714 3.2883914 1.3029984 -0.09119455 2.1668003 3.8018863 -0.60853845 -1.529687
-0.8426235 -0.55586314 -2.1263533 -1.1603516 0.19473745 -0.9922465 -0.18672554 -0.032959044
1.5509183 -0.07325883 -1.0944821 -3.1433394 3.3800795 -2.0423872 1.2588291 0.5361092
-1.0999362 -2.2941506 2.6459568 0.08416337 1.5607796 2.3307378 0.23233022 2.0452123
1.1511036 -0.06180074 -1.9932961 -0.35749483 0.22677091 -1.6511165 0.0033683616 0.4206457
2.0074992 -3.0651221 0.14719927 1.4025449 -0.024831377 -0.37688097 -3.308509 -0.3997928
-0.17392199 3.0479805 -0.14128612 0.5836392 2.876858 0.96213967 1.2720222 -3.2531118
-0.012197656 0.41362777 2.6908295 0.44385627 0.17416705 -2.530975 1.4677551 0.2034884
-3.4826527 -0.554288 0.89324135 -2.1472154 0.15525188 0.5192428 3.258902 0.40266022
0.27979958 -2.2130432 1.6416656 -0.30436245 2.5983262 0.0034748306 0.24780945 -1.918026
-1.2298278 0.51045716 -2.9679582 -1.0644588 -0.06891284 2.0422788 -0.68572193 0.34368977
-3.146339 -0.9243944 -0.5753719 2.8201241 0.4080487 -0.72648203 -2.0612772 -0.3995027
0.5453246 -2.663547 -0.84867316 -0.5266672 3.2145622 0.3562776 0.7883325 2.8864489
0.40682778 1.0512648 3.5266242 2.5746777 0.6031842 -2.1926942 -1.0367463 1.4949737
1.9753233 4.0129366 1.6738218 -0.6617984 -0.93787444 0.5744797 -2.8322484 0.017655782
0.3092616 -2.8305151 0.004255083 -0.4310496 -2.0620627 2.1875756 -0.59017974 -0.26494798
1.4272738 -0.15173836 3.0606875 -1.5660548 -0.19733459 1.7256172 0.47136593 -0.74591875
1.6011281 0.3894907 -0.25216946 2.5744605 0.39554104 0.076239906 -2.3065193 -0.6219276
-0.90549964 2.627051 -0.26439685 0.042036474 -1.9373263 -0.85709745 -1.899824 -3.5046706
-0.27635607 0.92599505 3.2324097 1.1994729 4.001559 -0.89454544 1.8999251 -2.8160312
0.9303583 0.98636556 -0.84022266 1.417331 -1.1586598 -1.9596529 1.477701 -0.004506076

bias f4 [100]
00000000: 44bd 3dbf e45a 033f 0052 6440 03e4 493e
00000010: 3f15 c3bf f557 c7bf 218a bc3f 7f30 d43f
00000020: 7a59 97be 59f6 b93f f696 953f 69b8 31bf
00000030: 6940 753f 9b19 1fbf 5a6a 5c40 b4fd 3b3e
00000040: fc9d 5a3e 9bc9 d5bf fd36 3b3c 6b0c a0bd
00000050: bcdb 27bf 3231 933f a32a 2ec0 4b81 c73f
00000060: 0084 35bf 8cce de3f 92de 96bf fdb8 6fbe
00000070: 0807 623f 7754 b23e dd33 bebf f826 3e3f
00000080: 647a 6ac0 3d15 843f 6626 45bf 776f 0bc0
00000090: debf 04be 06c7 9e3f 6732 89bf 5ab7 1fbf
000000a0: 4ddc 8b3f f39b 833f a72b 9bbf 5aea 343e
000000b0: dc83 e23f 7df2 90bf 431c 9f3e ae8f f83e
000000c0: 1213 c5bf a1ac 2e3f a19b 5f3f 9fb8 a73f
000000d0: a0d5 36bf 2e30 c13f d531 f5bd 6ce3 793f
000000e0: bffd ba3e 587c b5bf 5885 d8be 14ca 0640
000000f0: ce6c 893f 8390 cc3f 3746 b83f 9ae9 d3bf
00000100: 1c82 2dbf 33a2 97be 1c15 9abe d8d1 513e
00000110: af36 06c0 ec83 b93f ba1b 983f 7c4a 0b3f
00000120: 26d8 febe a903 d2bf ea95 71bf d222 c6bf
00000130: b7e0 8b3e 3c79 e0bf dcad 723f 7275 4a3f
00000140: c34f 5bbf 62ec 1ebf 6c74 253f 7c19 083e
00000150: 65ff 7ebf 903c 8740 facf d9bf 898d 2d3f
00000160: ecbd 89c0 d418 f8be 10d7 c63f 30d2 953d
00000170: db92 c03f 8b05 0f40 e9e3 8abf 2000 c23e
00000180: 741f cb3f d737 bd3f 45ee c3bf 3e44 c6bf
-0.7411692 0.51310563 3.567505 0.19715886 -1.5240859 -1.5573717 1.4729654 1.65773
-0.29560453 1.4528304 1.1686695 -0.6942201 0.9580141 -0.62148446 3.4439912 0.18358499
0.21349329 -1.670215 0.011426684 -0.078148685 -0.65569663 1.1499388 -2.7213523 1.5586332
-0.7090454 1.7406783 -1.1786673 -0.23410411 0.8829198 0.34830067 -1.4859577 0.7427821
-3.6637201 1.0318981 -0.77011716 -2.1786783 -0.12963817 1.2404487 -1.0718507 -0.6238915
1.0926605 1.0281967 -1.2122697 0.17667523 1.769649 -1.1324002 0.3107625 0.4854712
-1.5396445 0.6823216 0.87346846 1.3103217 -0.71419716 1.5092828 -0.11972395 0.97612643
0.36521718 -1.4178572 -0.42289233 2.1060839 1.073633 1.5981601 1.4396428 -1.6555665
-0.67776656 -0.29615936 -0.3009423 0.20490205 -2.0970876 1.4493384 1.1883461 0.5441053
-0.49774283 -1.6407367 -0.94369376 -1.5479376 0.2731988 -1.7536998 0.9479654 0.7908546
-0.8566858 -0.6207944 0.6463077 0.13290972 -0.9960845 4.226143 -1.7016594 0.6779409
-4.304434 -0.48456442 1.5534382 0.07315481 1.5044817 2.2347133 -1.0850803 0.3789072
1.5868974 1.4782666 -1.5307089 -1.5489576

weight f4 [100, 100]
00000000: 9340 3c3f bbce f33d 6aa6 6abf 820a 0fbf
00000010: c0aa 0440 a331 ee3f 7bc7 67bf 4339 f9bf
00000020: 58dd 05bf 6b27 f5bf 438e 4ebf 702d a53f
00000030: 4cf4 b3bf e27d a43e adc1 ea3f 8039 563f
00000040: 2173 ce3e 3213 f73f b6eb 45bf 544e afbf
00000050: 5271 5fbf 9ed8 d43e 8bef b83f aa70 bebf
00000060: f7af b33d 2a89 f6bf c4bb bc3f ba8d 8b3f
00000070: 2f0a cdbc 1f7a 95be 40af 9f3f 93b0 933f
00000080: f12d 543f 45a4 07bf d155 cf3e 78b5 adbf
00000090: f611 c23e 513f 173f f80b 983f cb89 173f
000000a0: 1594 bf3d fa35 8fbf df12 c63f 3426 11bf
000000b0: 2d51 ecbf 2f99 953f 96ec 853f 7e8f ffbe
000000c0: bda2 f83f 7a39 61bf 898a cebe 73ad 61bf
000000d0: bc37 883f a4e4 adbf e0a2 69bf 85f1 8e3f
000000e0: d91a 643f 913a edbe 447a a73f c438 cc3f
000000f0: 02cd 8e3e 5277 bebf f6ae ba3f 7e58 d13e
00000100: b151 6c3f ece5 59bf 49e7 9b3d 6653 0dc0
00000110: 38d3 c03f fc50 a93f c0ed e3bf 09f1 843d
00000120: beb3 8ebe b018 28bf 015a 1d3f 32d4 e43f
00000130: 2df7 6bbe 9703 e33e 7700 46bf 0961 02bf
00000140: a649 163f b543 d8bc 9c20 e83e 8f11 3bbf
00000150: 3986 d23e e7b6 5cbf 8153 dfbe ce57 e6be
00000160: 7a43 2940 4ba4 d2be 0422 a73f d4fe ca3f
00000170: 8a12 cabf 1e3e 41bf 0c80 123d fdbf d5bd
00000180: 3192 323f 3f06 c9bf 1c80 633f 7df1 633e
00000190: 21bc 14bf db37 a73e 45bd c23e 88fe 6e3e
000001a0: 6143 1fbf 8cc8 70bf aade a93e 46fe 1740
000001b0: 3512 de3e 8ec0 893f 5936 f83d 0745 8bbf
000001c0: eb85 a03e f885 bf3e c3f7 20c0 5507 bfbf
000001d0: dcd4 993c ae51 11c0 78a3 fb3e 8d02 0140
000001e0: 0c62 a5bd 74d6 05bf 858b 0dc0 2edb bf3e
000001f0: 7d8c e13d 1bf4 1040 0a92 c3bf 621c 64bf
00000200: e915 463e 7bb0 22bf 87d7 02c0 26e5 38bf
00000210: f4f7 1cbf 309f 9b3f 80c9 1ebe d8cc d13f
00000220: 63a2 dbbd e634 3bbf 78e7 93be b029 5abe
00000230: 2ca5 d8bd 572d a43f 9702 88bf 1cc3 873c
00000240: e603 8c3e 41d6 0fbf 4a53 ccbf f90a 153b
00000250: 1a16 5ebf 684e 8b3f a6aa f63d 8d9b 483f
00000260: f5f4 04be c00b ee3e d894 503f 417f a3bf
00000270: 13b5 49bf 3b4e 383f 5bd8 d6bf 4706 19c0
00000280: ce13 aabe 72f1 4e3f 18b6 f0bf fbab 7abd
00000290: 9823 93be f9bb c93f 35a1 113f 5d08 1b40
000002a0: 0697 01c0 402c 0dbf 8e77 b83f 2798 14be
000002b0: a4ab 0a3f 0f67 793f 1098 2dbf 8a3d 05c0
000002c0: 9f2f 793f b334 67be 8504 cb3e 39bf 093e
000002d0: baff 85bf d165 1b3e fcbf 533e 85b2 6e3f
000002e0: dec8 00be bbbc 753f 4998 473e 5fb5 56be
000002f0: 9d05 3ac0 8515 043f 6438 2ebf 1d32 d4be
00000300: 6468 cabd fe4b c33f ca63 d23e 8ca4 a83e
00000310: 262e 59bf 9224 d43f c9ac 9fbe 2061 6cbb
00000320: 30a8 33bd 4e97 52ba 83fd 03bf 8467 413f
00000330: 0648 e23f 1607 923f e1c0 c7bf 7856 a2bf
00000340: d375 653e c510 55bf 78d8 89bf 490c 833e
00000350: 52bc e3bd 9402 e03c fe68 85bf 2210 9cbd
00000360: c728 98bf 6069 703f b28f 81bf 7ae3 633c
00000370: 65f0 87be 15c5 12be eca8 88be 32f4 cabf
00000380: 5060 843f 5d87 3abf 8593 67bf c3c4 093f
00000390: 8300 bc3e 344f 37bf f099 89bd 61b3 83bd
000003a0: 7870 ab3e ff5f 1f3f d7d3 d43d fb7c b93f
000003b0: b40c de3f e34d bfbe 0b17 0bbe 0ad7 7d3f
000003c0: 5932 b8bf 82fc 38bf 418b 7e3f 25ef aa3f
000003d0: 3212 aabf ceb6 ea3e c4cc b7bf 62f5 babe
000003e0: 240e 763f 0691 d0be d543 71bf caae 973e
000003f0: ca4b aabe d805 dcbf b3da 493f bcbe 83bf
0.7353603 0.11904665 -0.9166018 -0.5587541 2.0729218 1.8608898 -0.9053876 -1.94706
-0.5229087 -1.9152654 -0.80685824 1.2904491 -1.4058928 0.3212729 1.8340355 0.8368149
0.4032221 1.9302733 -0.7731279 -1.3695779 -0.8728229 0.41571516 1.4448103 -1.4878132
0.08773797 -1.9260609 1.4744802 1.0902627 -0.02502927 -0.29194734 1.2475357 1.1538261
0.828826 -0.5298503 0.4049516 -1.3571005 0.37904328 0.5908099 1.1878653 0.5919463
0.09354416 -1.1188347 1.5474509 -0.5669892 -1.8462273 1.1687373 1.0462825 -0.49914163
1.9424664 -0.8797833 -0.4034007 -0.8815529 1.0642009 -1.35854 -0.9126415 1.1167456
0.89103466 -0.46333745 1.3084188 1.5954823 0.27890784 -1.4880164 1.4584644 0.40887827
0.9231215 -0.8511646 0.076124735 -2.2082152 1.5064459 1.322784 -1.780693 0.06491286
-0.27871507 -0.6566267 0.6146546 1.7877257 -0.23043509 0.44338676 -0.7734446 -0.50929314
0.5870613 -0.026399473 0.4533738 -0.7307367 0.4111803 -0.86216587 -0.43618396 -0.44988865
2.6447434 -0.4114097 1.3057256 1.5859017 -1.5786908 -0.7548541 0.035766646 -0.104370095
0.6975432 -1.5705031 0.88867354 0.22260089 -0.5809956 0.32659802 0.38035026 0.23339283
-0.6221219 -0.9405601 0.33177692 2.3748946 0.43373266 1.0761888 0.12119741 -1.088044
0.3135217 0.37406898 -2.5151222 -1.4924113 0.018778257 -2.2706103 0.49148154 2.0157807
-0.080753416 -0.52280354 -2.2116406 0.37471908 0.11013124 2.264899 -1.5278943 -0.8910581
0.19344296 -0.6355054 -2.0444047 -0.7222465 -0.61315846 1.2157955 -0.15506554 1.6390638
-0.10724332 -0.7312759 -0.28887534 -0.21304965 -0.10578379 1.2826337 -1.062579 0.016572528
0.27346724 -0.561863 -1.5962918 0.0022742136 -0.86752474 1.0883303 0.12044267 0.7836235
-0.12984069 0.4649334 0.8147712 -1.277321 -0.7879192 0.7199437 -1.6784776 -2.3910081
-0.33218235 0.80837166 -1.8805571 -0.06119917 -0.28738093 1.576049 0.5688661 2.4223855
-2.0248427 -0.55145645 1.4411485 -0.14511167 0.5416815 0.9742288 -0.67810154 -2.081881
0.9733829 -0.22578697 0.39651886 0.13451852 -1.0468667 0.15175559 0.20678705 0.9324115
-0.12576625 0.95991105 0.19491686 -0.20967625 -2.9065926 0.51595336 -0.68054795 -0.41444483
-0.09883192 1.5257566 0.41091758 0.3293804 -0.8483604 1.657366 -0.31186512 -0.0036068633
-0.043861568 -0.00080334104 -0.51558703 0.7554858 1.767823 1.1408412 -1.5605737 -1.2682638
0.22408228 -0.83228713 -1.0769186 0.2559531 -0.111199036 0.02734498 -1.0422666 -0.076202646
-1.1887444 0.9391079 -1.0121977 0.013909215 -0.26550594 -0.14332993 -0.26691377 -1.5855772
1.0341892 -0.728628 -0.9045947 0.5381586 0.3671914 -0.7160523 -0.067188144 -0.06430698
0.33484244 0.62255853 0.10391968 1.4491266 1.7347627 -0.3736411 -0.13583009 0.9915625
-1.4390365 -0.72260296 0.99431235 1.3354231 -1.3286803 0.45842594 -1.4359365 -0.36515337
0.96115327 -0.40735644 -0.9424413 0.2962554 -0.33260947 -1.7189283 0.78849334 -1.0292583

bias f4 [100]
00000000: 2d4f 11bf 34c2 43bf 1632 fabf 98f0 babf
00000010: bf30 9f3f 3ba3 c1bf 9f35 93bf f54d c8be
00000020: 42ce 6bbf 5144 d33d 5b36 cbbf 17a0 1a3f
00000030: a086 803f 3159 613f 0e1b 1e3f a9ee 64bf
00000040: e019 bcbe 3030 fbbe d419 cbbf 9d7f ac3e
00000050: 4a6e 8abf f71e 7ebc 51eb edbe b3df 32bf
00000060: bf1c 383d e150 963e f433 06bf 7762 2ebe
00000070: 8e16 4fbc 001c 25be 038a 80be e83a fe3e
00000080: cf6f d73e db7e 2fbe c796 883e 6b0e dc3d
00000090: 792f 39be 91fe adbf a0d3 00bf 5049 c63e
000000a0: 3659 0d3f 188b 1c3f 80dd ff3d a657 283c
000000b0: 7d77 3e3f dbe9 0ebf 2ebc 6f3f 21d6 c93f
000000c0: b635 b43f 16ec 533f 2dd8 ccbe 5fa4 293f
000000d0: b930 0d3f 294d 183f 53b6 ccbe a67f c7bd
000000e0: 177e 49bf 77ad 6d3f af51 dabd 14f1 6c3e
000000f0: cc08 53bf 0e66 753f 930d 6bbe 08b4 8ebd
00000100: 0a2b 1e3f b261 0cbe 9c15 b03e 0508 b83e
00000110: 454a 1ebf 7407 37bf a871 ccbe 25fd ac3f
00000120: bf06 a63f f6f0 b13f 131f 2e3f 1b78 c2bf
00000130: a098 6abf 4a2d e7bf 9660 63bf 5daa 0a3e
00000140: 8650 5a3d 2094 bb3d e817 3e3f 92fb 2a3f
00000150: 4701 763f d5d3 38bf b371 23c0 e944 853e
00000160: 4cb1 41bf f129 6dbf c950 103f 0a58 d53e
00000170: 2d68 263f 0697 233f 3c68 1a3f 1b17 b23d
00000180: 9847 b03e 9c9f 8dbf 6a5c 62bf b6be f4be
-0.5676144 -0.76468205 -1.9546535 -1.4604673 1.2436751 -1.5127939 -1.1500739 -0.39121976
-0.921116 0.10315765 -1.5875963 0.6040053 1.0041084 0.8802672 0.6176003 -0.89426666
-0.3673849 -0.49060202 -1.5867257 0.3369111 -1.0814908 -0.015510312 -0.46468595 -0.6987259
0.04494929 0.2935858 -0.52423024 -0.17029749 -0.012639655 -0.16123962 -0.25105295 0.49654317
0.4207749 -0.17138235 0.26677534 0.107449375 -0.18084516 -1.3593313 -0.50322914 0.38727808
0.5521425 0.6114974 0.1249342 0.010274803 0.74401075 -0.55825585 0.93646514 1.5768472
1.4078891 0.82782114 -0.4000868 0.66266435 0.5515247 0.5949274 -0.39982852 -0.09741144
-0.7870802 0.9284281 -0.10660111 0.23138839 -0.824353 0.9585885 -0.22954397 -0.06967932
0.6178442 -0.13709143 0.34391487 0.35943618 -0.61832076 -0.7149575 -0.39930463 1.3514754
1.2970809 1.390166 0.68016165 -1.5192903 -0.9163914 -1.8060696 -0.88819253 0.13541551
0.05329945 0.09159112 0.7425523 0.66790116 0.960957 -0.7219823 -2.5538146 0.26029137
-0.7566116 -0.9264212 0.5637327 0.4166873 0.6500271 0.6390232 0.603153 0.08695813
0.34429622 -1.1064334 -0.8842226 -0.4780175

weight f4 [2, 100]
00000000: 2120 903f 7ec7 42be 0add 743e 2513 b53d
00000010: d7ae 093e f697 a1be 7abe f4bf 88f8 283e
00000020: effb aa3e c1fc 1fbf 2734 8a3d 2483 bc3d
00000030: d84f c73e cf5a b1be d236 ed3b 3dfb 503e
00000040: d601 863e fbdc 0abe 7e1b 83bd 5f64 c63e
00000050: 6fd8 903f 5cf3 a9bd 51b9 ec3d 828f c0be
00000060: 6c15 a3bd 6bf8 0b40 80f3 cb3f 548d c4be
00000070: b7b6 143e 7d79 403f f1a6 7e3d 2bab 0d3f
00000080: a733 98be a051 0abf 0b19 c1be 4bd9 f03d
00000090: d707 963d f8c1 983e bac9 20bc 9646 0c3e
000000a0: 5d47 2abe 6c87 c7bf 5399 c4be 9990 babd
000000b0: bea1 d53e b5b4 243e bb7b 873e 4dc0 85bd
000000c0: d960 433e dc69 57be 7981 2fbe b2e4 ef3e
000000d0: ab3a b8bd 5132 0ebe 60e6 9a3f 1510 6a3e
000000e0: 7bcd 70be f2a7 a3be 8d3c 32be 2de8 3b3f
000000f0: 7d9b 94be 305d a53f ecd8 803e 839a e63d
00000100: 1212 8c3d bd7a 453e 1b45 713e 919e 20bd
00000110: 531d f03e e7d3 e43f 4ebe dc3e baba d5bc
00000120: d65f 52bf a2b9 0a3f a96f 723d f6d9 b43d
00000130: 0ec0 48be 55f3 a1bd 9be3 373e 025d 633e
00000140: f538 25be 74c7 033f a314 eabd 8065 5b3e
00000150: 7e34 0f40 5d6f d4be 911e 453f 2713 ee3c
00000160: 7ecd c33f 995a 7a3f a911 50be 4cb4 713e
00000170: 4692 683f 2c1b 8c3f 2c52 8cbe 3bbd 1b3f
00000180: 4d11 733e f57c 4abe 6f2e da3d eeb0 72be
00000190: 5259 a8be c645 4e3e d033 2b3f 2771 a93e
000001a0: 9d36 29be f7ca 7bbe d913 bb3f 42e3 a2be
000001b0: 9bef 2b3e de5b 5fbe 7404 463f 6afd 68be
000001c0: 2554 3e3d b13b 293f 4731 1f3e f856 983b
000001d0: dc8d be3c 4943 0b3e 3fde 043d 4316 093f
000001e0: b9a6 643f 5d5d 77bf 0e35 cdbd b29d 353e
000001f0: 0c8f 8ebd 6451 c3bf f294 323f 7a73 853f
00000200: 53ef c1be 7072 103f 69b6 b5be 3255 7f3e
00000210: a4ac d1be dfb0 c4be 9b08 923d f9cc 09be
00000220: 92d9 9cbe 202e 54bb fa87 14be 2984 07bd
00000230: d247 b0be 9f22 97bf 379f 0e3f f1f6 133f
00000240: a106 11be 5d62 8f3d f557 f63e a2e7 32be
00000250: 219b 25c0 637a 4dbe 1fbc 99bf f16a 15bf
00000260: f07a 063e 552c 37be 21e3 70bf c687 a0be
00000270: 64e6 e33e 05de 84be cc31 8cbd f59b 9f3e
00000280: 64b6 483f 1fb7 3e3f ca3f c6be e6ef fbbd
00000290: 5379 bf3f 9826 493e 9c37 ad3e f709 a8bc
000002a0: 620c 93be 7b4d 4e3f e37e 6ebd 968a cc3e
000002b0: 6cf7 15bf 27f2 893e 6472 5d3c 36df cabe
000002c0: f427 5ebf 5174 88be a81d 953d 5ba7 8fbe
000002d0: ff36 a83d 481f 9abd 77f1 08be 091a 5c3e
000002e0: 22d1 9fbf 01fb 41be 4ea0 dfbe 8f55 5fbe
000002f0: b0ca 73be cf1b 0d3d 4015 16be 6351 21bb
00000300: 5707 033f 6075 7ebf f6f6 c1be cf9d 5c3f
00000310: e47a 383f 09b4 913e 841a 0940 9142 8cbe
1.1259805 -0.19021413 0.23912445 0.08841542 0.13445602 -0.3156125 -1.9120629 0.16501057
0.33395335 -0.62495047 0.067482285 0.092047006 0.38928103 -0.34639594 0.007239201 0.2040834
0.26173276 -0.1356086 -0.06401728 0.38748452 1.131605 -0.0829837 0.11558784 -0.37609488
-0.0796307 2.1870372 1.5933685 -0.38389075 0.14522825 0.75185376 0.062170926 0.55339307
-0.29726908 -0.540308 -0.3771442 0.11760195 0.07325714 0.29835486 -0.00981372 0.13698801
-0.16628785 -1.5588202 -0.38398227 -0.09109611 0.41724962 0.1608456 0.26461586 -0.06530819
0.19079913 -0.21036476 -0.17139234 0.46854168 -0.08995565 -0.13886382 1.2101555 0.22857697
-0.23515885 -0.3196407 -0.17405911 0.7340115 -0.29024878 1.2919064 0.25165498 0.112599395
0.06839384 0.19285102 0.23561518 -0.03921372 0.46897373 1.7877167 0.4311394 -0.026090015
-0.82177484 0.54189503 0.05918852 0.08830635 -0.19604513 -0.0790774 0.17957918 0.22203448
-0.16135009 0.51476216 -0.114297174 0.21425438 2.2375789 -0.41491213 0.76999766 0.029061867
1.5297086 0.9779449 -0.20319237 0.23603934 0.90848196 1.0945792 -0.27406442 0.6083562
0.23737068 -0.1977423 0.10653388 -0.23700306 -0.32880646 0.20143804 0.66875935 0.3309414
-0.1652474 -0.24589144 1.4615432 -0.3181401 0.16790621 -0.21812388 0.77350545 -0.2275292
0.046466965 0.66106707 0.15546142 0.0046490394 0.023261003 0.13599886 0.032438513 0.53549594
0.893169 -0.96626836 -0.10019885 0.17735937 -0.06960878 -1.5259213 0.6975852 1.0425866
-0.37877902 0.5642462 -0.3549073 0.24934843 -0.40952027 -0.38416192 0.071305476 -0.13457097
-0.30634743 -0.0032376125 -0.14504996 -0.033085022 -0.34429795 -1.180744 0.5571169 0.5779868
-0.14162685 0.07001183 0.4811398 -0.17471173 -2.5875933 -0.20066218 -1.2010535 -0.58366305
0.13132834 -0.17888005 -0.9409657 -0.31353587 0.44511712 -0.25950637 -0.068454355 0.31173673
0.78403306 0.7449817 -0.38720542 -0.12301616 1.49589 0.19643629 0.3383149 -0.020512564
-0.28720385 0.80586976 -0.058226477 0.39949483 -0.5858066 0.2694256 0.013516042 -0.3962342
-0.86779714 -0.26651242 0.07281047 -0.2805737 0.08213615 -0.07525498 -0.13373362 0.21494307
-1.2485697 -0.18943407 -0.4367699 -0.21809982 -0.23807788 0.03445035 -0.14656544 -0.002461516
0.51183075 -0.9939785 -0.3788373 0.86178297 0.72062516 0.28457668 2.1422434 -0.27394536

bias f4 [2]
00000000: 7bb2 553f b724 d4be
0.83475465 -0.4143426
